----------------------------------------------------------------
        Layer (type)               Output Shape         Param #
================================================================
            Conv2d-1            [-1, 8, 28, 28]              80
       BatchNorm2d-2            [-1, 8, 28, 28]              16
           Dropout-3            [-1, 8, 28, 28]               0
            Conv2d-4           [-1, 12, 28, 28]             876
       BatchNorm2d-5           [-1, 12, 28, 28]              24
           Dropout-6           [-1, 12, 28, 28]               0
         MaxPool2d-7           [-1, 12, 14, 14]               0
            Conv2d-8           [-1, 16, 14, 14]           1,744
       BatchNorm2d-9           [-1, 16, 14, 14]              32
          Dropout-10           [-1, 16, 14, 14]               0
        MaxPool2d-11             [-1, 16, 7, 7]               0
           Linear-12                   [-1, 16]          12,560
           Linear-13                   [-1, 10]             170
================================================================
Total params: 15,502
Trainable params: 15,502
Non-trainable params: 0
----------------------------------------------------------------
Input size (MB): 0.00
Forward/backward pass size (MB): 0.45
Params size (MB): 0.06
Estimated Total Size (MB): 0.52
----------------------------------------------------------------

Epoch: 1
loss=0.035983856767416 batch_id=937: 100%|██████████| 938/938 [00:49<00:00, 18.96it/s]
…
